…
                        "train_loss": 0.09375697884067732,
                        "val_loss": 0.19669478557383022,
                        "train_accuracy": 96.8371467025572,
                        "val_accuracy": 94.07806191117093,
                        "time": 38.4338653087616,
                        "learning_rate": 0.001
                    }
                ]
            },
            "hardware": {
                "device": "cuda",
                "model_architecture": {
                    "": "MobileNetV2(\n  (features): Sequential(\n    (0): Conv2dNormActivation(\n      (0): Conv2d(3, 32, kernel_size=(3, 3), stride=(2, 2), padding=(1, 1), bias=False)\n      (1): BatchNorm2d(32, eps=1e-05, momentum=0.1, affine=True, track_running_stats=True)\n      (2): ReLU6(inplace=True)\n    )\n    (1): InvertedResidual(\n      (conv): Sequential(\n        (0): Conv2dNormActivation(\n          (0): Conv2d(32, 32, kernel_size=(3, 3), stride=(1, 1), padding=(1, 1), groups=32, bias=False)\n          (1): BatchNorm2d(32, eps=1e-05, momentum=0.1, affine=True, track_running_stats=True)\n          (2): ReLU6(inplace=True)\n        )\n        (1): Conv2d(32, 16, kernel_size=(1, 1), stride=(1, 1), bias=False)\n        (2): BatchNorm2d(16, eps=1e-05, momentum=0.1, affine=True, track_running_stats=True)\n      )\n    )\n    (2): InvertedResidual(\n      (conv): Sequential(\n        (0): Conv2dNormActivation(\n          (0): Conv2d(16, 96, kernel_size=(1, 1), stride=(1, 1), bias=False)\n          (1): BatchNorm2d(96, eps=1e-05, momentum=0.1, affine=True, track_running_stats=True)\n          (2): ReLU6(inplace=True)\n        )\n        (1): Conv2dNormActivation(\n          (0): Conv2d(96, 96, kernel_size=(3, 3), stride=(2, 2), padding=(1, 1), groups=96, bias=False)\n          (1): BatchNorm2d(96, eps=1e-05, momentum=0.1, affine=True, track_running_stats=True)\n          (2): ReLU6(inplace=True)\n        )\n        (2): Conv2d(96, 24, kernel_size=(1, 1), stride=(1, 1), bias=False)\n        (3): BatchNorm2d(24, eps=1e-05, momentum=0.1, affine=True, track_running_stats=True)\n      )\n    )\n    (3): InvertedResidual(\n      (conv): Sequential(\n        (0): Conv2dNormActivation(\n          (0): Conv2d(24, 144, kernel_size=(1, 1), stride=(1, 1), bias=False)\n          (1): BatchNorm2d(144, eps=1e-05, momentum=0.1, affine=True, track_running_stats=True)\n          (2): ReLU6(inplace=True)\n        )\n        (1): Conv2dNormActivation(\n          (0): Conv2d(144, 144, kernel_size=(3, 3), stride=(1, 1), padding=(1, 1), groups=144, bias=False)\n          (1): BatchNorm2d(144, eps=1e-05, momentum=0.1, affine=True, track_running_stats=True)\n          (2): ReLU6(inplace=True)\n        )\n        (2): Conv2d(144, 24, kernel_size=(1, 1), stride=(1, 1), bias=False)\n        (3): BatchNorm2d(24, eps=1e-05, momentum=0.1, affine=True, track_running_stats=True)\n      )\n    )\n    (4): InvertedResidual(\n      (conv): Sequential(\n        (0): Conv2dNormActivation(\n          (0): Conv2d(24, 144, kernel_size=(1, 1), stride=(1, 1), bias=False)\n          (1): BatchNorm2d(144, eps=1e-05, momentum=0.1, affine=True, track_running_stats=True)\n          (2): ReLU6(inplace=True)\n        )\n        (1): Conv2dNormActivation(\n          (0): Conv2d(144, 144, kernel_size=(3, 3), stride=(2, 2), padding=(1, 1), groups=144, bias=False)\n          (1): BatchNorm2d(144, eps=1e-05, momentum=0.1, affine=True, track_running_stats=True)\n          (2): ReLU6(inplace=True)\n        )\n        (2): Conv2d(144, 32, kernel_size=(1, 1), stride=(1, 1), bias=False)\n        (3): BatchNorm2d(32, eps=1e-05, momentum=0.1, affine=True, track_running_stats=True)\n      )\n    )\n    (5): InvertedResidual(\n      (conv): Sequential(\n        (0): Conv2dNormActivation(\n          (0): Conv2d(32, 192, kernel_size=(1, 1), stride=(1, 1), bias=False)\n          (1): BatchNorm2d(192, eps=1e-05, momentum=0.1, affine=True, track_running_stats=True)\n          (2): ReLU6(inplace=True)\n        )\n        (1): Conv2dNormActivation(\n          (0): Conv2d(192, 192, kernel_size=(3, 3), stride=(1, 1), padding=(1, 1), groups=192, bias=False)\n          (1): BatchNorm2d(192, eps=1e-05, momentum=0.1, affine=True, track_running_stats=True)\n          (2): ReLU6(inplace=True)\n        )\n        (2): Conv2d(192, 32, kernel_size=(1, 1), stride=(1, 1), bias=False)\n        (3): BatchNorm2d(32, eps=1e-05, momentum=0.1, affine=True, track_running_stats=True)\n      )\n    )\n    (6): InvertedResidual(\n      (conv): Sequential(\n        (0): Conv2dNormActivation(\n          (0): Conv2d(32, 192, kernel_size=(1, 1), stride=(1, 1), bias=False)\n          (1): BatchNorm2d(192, eps=1e-05, momentum=0.1, affine=True, track_running_stats=True)\n          (2): ReLU6(inplace=True)\n        )\n        (1): Conv2dNormActivation(\n          (0): Conv2d(192, 192, kernel_size=(3, 3), stride=(1, 1), padding=(1, 1), groups=192, bias=False)\n          (1): BatchNorm2d(192, eps=1e-05, momentum=0.1, affine=True, track_running_stats=True)\n          (2): ReLU6(inplace=True)\n        )\n        (2): Conv2d(192, 32, kernel_size=(1, 1), stride=(1, 1), bias=False)\n        (3): BatchNorm2d(32, eps=1e-05, momentum=0.1, affine=True, track_running_stats=True)\n      )\n    )\n    (7): InvertedResidual(\n      (conv): Sequential(\n        (0): Conv2dNormActivation(\n          (0): Conv2d(32, 192, kernel_size=(1, 1), stride=(1, 1), bias=False)\n          (1): BatchNorm2d(192, eps=1e-05, momentum=0.1, affine=True, track_running_stats=True)\n          (2): ReLU6(inplace=True)\n        )\n        (1): Conv2dNormActivation(\n          (0): Conv2d(192, 192, kernel_size=(3, 3), stride=(2, 2), padding=(1, 1), groups=192, bias=False)\n          (1): BatchNorm2d(192, eps=1e-05, momentum=0.1, affine=True, track_running_stats=True)\n          (2): ReLU6(inplace=True)\n        )\n        (2): Conv2d(192, 64, kernel_size=(1, 1), stride=(1, 1), bias=False)\n        (3): BatchNorm2d(64, eps=1e-05, momentum=0.1, affine=True, track_running_stats=True)\n      )\n    )\n    (8): InvertedResidual(\n      (conv): Sequential(\n        (0): Conv2dNormActivation(\n          (0): Conv2d(64, 384, kernel_size=(1, 1), stride=(1, 1), bias=False)\n          (1): BatchNorm2d(384, eps=1e-05, momentum=0.1, affine=True, track_running_stats=True)\n          (2): ReLU6(inplace=True)\n        )\n        (1): Conv2dNormActivation(\n          (0): Conv2d(384, 384, kernel_size=(3, 3), stride=(1, 1), padding=(1, 1), groups=384, bias=False)\n          (1): BatchNorm2d(384, eps=1e-05, momentum=0.1, affine=True, track_running_stats=True)\n          (2): ReLU6(inplace=True)\n        )\n        (2): Conv2d(384, 64, kernel_size=(1, 1), stride=(1, 1), bias=False)\n        (3): BatchNorm2d(64, eps=1e-05, momentum=0.1, affine=True, track_running_stats=True)\n      )\n    )\n    (9): InvertedResidual(\n      (conv): Sequential(\n        (0): Conv2dNormActivation(\n          (0): Conv2d(64, 384, kernel_size=(1, 1), stride=(1, 1), bias=False)\n          (1): BatchNorm2d(384, eps=1e-05, momentum=0.1, affine=True, track_running_stats=True)\n          (2): ReLU6(inplace=True)\n        )\n        (1): Conv2dNormActivation(\n          (0): Conv2d(384, 384, kernel_size=(3, 3), stride=(1, 1), padding=(1, 1), groups=384, bias=False)\n          (1): BatchNorm2d(384, eps=1e-05, momentum=0.1, affine=True, track_running_stats=True)\n          (2): ReLU6(inplace=True)\n        )\n        (2): Conv2d(384, 64, kernel_size=(1, 1), stride=(1, 1), bias=False)\n        (3): BatchNorm2d(64, eps=1e-05, momentum=0.1, affine=True, track_running_stats=True)\n      )\n    )\n    (10): InvertedResidual(\n      (conv): Sequential(\n        (0): Conv2dNormActivation(\n          (0): Conv2d(64, 384, kernel_size=(1, 1), stride=(1, 1), bias=False)\n          (1): BatchNorm2d(384, eps=1e-05, momentum=0.1, affine=True, track_running_stats=True)\n          (2): ReLU6(inplace=True)\n        )\n        (1): Conv2dNormActivation(\n          (0): Conv2d(384, 384, kernel_size=(3, 3), stride=(1, 1), padding=(1, 1), groups=384, bias=False)\n          (1): BatchNorm2d(384, eps=1e-05, momentum=0.1, affine=True, track_running_stats=True)\n          (2): ReLU6(inplace=True)\n        )\n        (2): Conv2d(384, 64, kernel_size=(1, 1), stride=(1, 1), bias=False)\n        (3): BatchNorm2d(64, eps=1e-05, momentum=0.1, affine=True, track_running_stats=True)\n      )\n    )\n    (11): InvertedResidual(\n      (conv): Sequential(\n        (0): Conv2dNormActivation(\n          (0): Conv2d(64, 384, kernel_size=(1, 1), stride=(1, 1), bias=False)\n          (1): BatchNorm2d(384, eps=1e-05, momentum=0.1, affine=True, track_running_stats=True)\n          (2): ReLU6(inplace=True)\n        )\n        (1): Conv2dNormActivation(\n          (0): Conv2d(384, 384, kernel_size=(3, 3), stride=(1, 1), padding=(1, 1), groups=384, bias=False)\n          (1): BatchNorm2d(384, eps=1e-05, momentum=0.1, affine=True, track_running_stats=True)\n          (2): ReLU6(inplace=True)\n        )\n        (2): Conv2d(384, 96, kernel_size=(1, 1), stride=(1, 1), bias=False)\n        (3): BatchNorm2d(96, eps=1e-05, momentum=0.1, affine=True, track_running_stats=True)\n      )\n    )\n    (12): InvertedResidual(\n      (conv): Sequential(\n        (0): Conv2dNormActivation(\n          (0): Conv2d(96, 576, kernel_size=(1, 1), stride=(1, 1), bias=False)\n          (1): BatchNorm2d(576, eps=1e-05, momentum=0.1, affine=True, track_running_stats=True)\n          (2): ReLU6(inplace=True)\n        )\n        (1): Conv2dNormActivation(\n          (0): Conv2d(576, 576, kernel_size=(3, 3), stride=(1, 1), padding=(1, 1), groups=576, bias=False)\n          (1): BatchNorm2d(576, eps=1e-05, momentum=0.1, affine=True, track_running_stats=True)\n          (2): ReLU6(inplace=True)\n        )\n        (2): Conv2d(576, 96, kernel_size=(1, 1), stride=(1, 1), bias=False)\n        (3): BatchNorm2d(96, eps=1e-05, momentum=0.1, affine=True, track_running_stats=True)\n      )\n    )\n    (13): InvertedResidual(\n      (conv): Sequential(\n        (0): Conv2dNormActivation(\n          (0): Conv2d(96, 576, kernel_size=(1, 1), stride=(1, 1), bias=False)\n          (1): BatchNorm2d(576, eps=1e-05, momentum=0.1, affine=True, track_running_stats=True)\n          (2): ReLU6(inplace=True)\n        )\n        (1): Conv2dNormActivation(\n          (0): Conv2d(576, 576, kernel_size=(3, 3), stride=(1, 1), padding=(1, 1), groups=576, bias=False)\n          (1): BatchNorm2d(576, eps=1e-05, momentum=0.1, affine=True, track_running_stats=True)\n          (2): ReLU6(inplace=True)\n        )\n        (2): Conv2d(576, 96, kernel_size=(1, 1), stride=(1, 1), bias=False)\n        (3): BatchNorm2d(96, eps=1e-05, momentum=0.1, affine=True, track_running_stats=True)\n      )\n    )\n    (14): InvertedResidual(\n      (conv): Sequential(\n        (0): Conv2dNormActivation(\n          (0): Conv2d(96, 576, kernel_size=(1, 1), stride=(1, 1), bias=False)\n          (1): BatchNorm2d(576, eps=1e-05, momentum=0.1, affine=True, track_running_stats=True)\n          (2): ReLU6(inplace=True)\n        )\n        (1): Conv2dNormActivation(\n          (0): Conv2d(576, 576, kernel_size=(3, 3), stride=(2, 2), padding=(1, 1), groups=576, bias=False)\n          (1): BatchNorm2d(576, eps=1e-05, momentum=0.1, affine=True, track_running_stats=True)\n          (2): ReLU6(inplace=True)\n        )\n        (2): Conv2d(576, 160, kernel_size=(1, 1), stride=(1, 1), bias=False)\n        (3): BatchNorm2d(160, eps=1e-05, momentum=0.1, affine=True, track_running_stats=True)\n      )\n    )\n    (15): InvertedResidual(\n      (conv): Sequential(\n        (0): Conv2dNormActivation(\n          (0): Conv2d(160, 960, kernel_size=(1, 1), stride=(1, 1), bias=False)\n          (1): BatchNorm2d(960, eps=1e-05, momentum=0.1, affine=True, track_running_stats=True)\n          (2): ReLU6(inplace=True)\n        )\n        (1): Conv2dNormActivation(\n          (0): Conv2d(960, 960, kernel_size=(3, 3), stride=(1, 1), padding=(1, 1), groups=960, bias=False)\n          (1): BatchNorm2d(960, eps=1e-05, momentum=0.1, affine=True, track_running_stats=True)\n          (2): ReLU6(inplace=True)\n        )\n        (2): Conv2d(960, 160, kernel_size=(1, 1), stride=(1, 1), bias=False)\n        (3): BatchNorm2d(160, eps=1e-05, momentum=0.1, affine=True, track_running_stats=True)\n      )\n    )\n    (16): InvertedResidual(\n      (conv): Sequential(\n        (0): Conv2dNormActivation(\n          (0): Conv2d(160, 960, kernel_size=(1, 1), stride=(1, 1), bias=False)\n          (1): BatchNorm2d(960, eps=1e-05, momentum=0.1, affine=True, track_running_stats=True)\n          (2): ReLU6(inplace=True)\n        )\n        (1): Conv2dNormActivation(\n          (0): Conv2d(960, 960, kernel_size=(3, 3), stride=(1, 1), padding=(1, 1), groups=960, bias=False)\n          (1): BatchNorm2d(960, eps=1e-05, momentum=0.1, affine=True, track_running_stats=True)\n          (2): ReLU6(inplace=True)\n        )\n        (2): Conv2d(960, 160, kernel_size=(1, 1), stride=(1, 1), bias=False)\n        (3): BatchNorm2d(160, eps=1e-05, momentum=0.1, affine=True, track_running_stats=True)\n      )\n    )\n    (17): InvertedResidual(\n      (conv): Sequential(\n        (0): Conv2dNormActivation(\n          (0): Conv2d(160, 960, kernel_size=(1, 1), stride=(1, 1), bias=False)\n          (1): BatchNorm2d(960, eps=1e-05, momentum=0.1, affine=True, track_running_stats=True)\n          (2): ReLU6(inplace=True)\n        )\n        (1): Conv2dNormActivation(\n          (0): Conv2d(960, 960, kernel_size=(3, 3), stride=(1, 1), padding=(1, 1), groups=960, bias=False)\n          (1): BatchNorm2d(960, eps=1e-05, momentum=0.1, affine=True, track_running_stats=True)\n          (2): ReLU6(inplace=True)\n        )\n        (2): Conv2d(960, 320, kernel_size=(1, 1), stride=(1, 1), bias=False)\n        (3): BatchNorm2d(320, eps=1e-05, momentum=0.1, affine=True, track_running_stats=True)\n      )\n    )\n    (18): Conv2dNormActivation(\n      (0): Conv2d(320, 1280, kernel_size=(1, 1), stride=(1, 1), bias=False)\n      (1): BatchNorm2d(1280, eps=1e-05, momentum=0.1, affine=True, track_running_stats=True)\n      (2): ReLU6(inplace=True)\n    )\n  )\n  (classifier): Sequential(\n    (0): Dropout(p=0.2, inplace=False)\n    (1): Linear(in_features=1280, out_features=2, bias=True)\n  )\n)",
                    "features": "Sequential(\n  (0): Conv2dNormActivation(\n    (0): Conv2d(3, 32, kernel_size=(3, 3), stride=(2, 2), padding=(1, 1), bias=False)\n    (1): BatchNorm2d(32, eps=1e-05, momentum=0.1, affine=True, track_running_stats=True)\n    (2): ReLU6(inplace=True)\n  )\n  (1): InvertedResidual(\n    (conv): Sequential(\n      (0): Conv2dNormActivation(\n        (0): Conv2d(32, 32, kernel_size=(3, 3), stride=(1, 1), padding=(1, 1), groups=32, bias=False)\n        (1): BatchNorm2d(32, eps=1e-05, momentum=0.1, affine=True, track_running_stats=True)\n        (2): ReLU6(inplace=True)\n      )\n      (1): Conv2d(32, 16, kernel_size=(1, 1), stride=(1, 1), bias=False)\n      (2): BatchNorm2d(16, eps=1e-05, momentum=0.1, affine=True, track_running_stats=True)\n    )\n  )\n  (2): InvertedResidual(\n    (conv): Sequential(\n      (0): Conv2dNormActivation(\n        (0): Conv2d(16, 96, kernel_size=(1, 1), stride=(1, 1), bias=False)\n        (1): BatchNorm2d(96, eps=1e-05, momentum=0.1, affine=True, track_running_stats=True)\n        (2): ReLU6(inplace=True)\n      )\n      (1): Conv2dNormActivation(\n        (0): Conv2d(96, 96, kernel_size=(3, 3), stride=(2, 2), padding=(1, 1), groups=96, bias=False)\n        (1): BatchNorm2d(96, eps=1e-05, momentum=0.1, affine=True, track_running_stats=True)\n        (2): ReLU6(inplace=True)\n      )\n      (2): Conv2d(96, 24, kernel_size=(1, 1), stride=(1, 1), bias=False)\n      (3): BatchNorm2d(24, eps=1e-05, momentum=0.1, affine=True, track_running_stats=True)\n    )\n  )\n  (3): InvertedResidual(\n    (conv): Sequential(\n      (0): Conv2dNormActivation(\n        (0): Conv2d(24, 144, kernel_size=(1, 1), stride=(1, 1), bias=False)\n        (1): BatchNorm2d(144, eps=1e-05, momentum=0.1, affine=True, track_running_stats=True)\n        (2): ReLU6(inplace=True)\n      )\n      (1): Conv2dNormActivation(\n        (0): Conv2d(144, 144, kernel_size=(3, 3), stride=(1, 1), padding=(1, 1), groups=144, bias=False)\n        (1): BatchNorm2d(144, eps=1e-05, momentum=0.1, affine=True, track_running_stats=True)\n        (2): ReLU6(inplace=True)\n      )\n      (2): Conv2d(144, 24, kernel_size=(1, 1), stride=(1, 1), bias=False)\n      (3): BatchNorm2d(24, eps=1e-05, momentum=0.1, affine=True, track_running_stats=True)\n    )\n  )\n  (4): InvertedResidual(\n    (conv): Sequential(\n      (0): Conv2dNormActivation(\n        (0): Conv2d(24, 144, kernel_size=(1, 1), stride=(1, 1), bias=False)\n        (1): BatchNorm2d(144, eps=1e-05, momentum=0.1, affine=True, track_running_stats=True)\n        (2): ReLU6(inplace=True)\n      )\n      (1): Conv2dNormActivation(\n        (0): Conv2d(144, 144, kernel_size=(3, 3), stride=(2, 2), padding=(1, 1), groups=144, bias=False)\n        (1): BatchNorm2d(144, eps=1e-05, momentum=0.1, affine=True, track_running_stats=True)\n        (2): ReLU6(inplace=True)\n      )\n      (2): Conv2d(144, 32, kernel_size=(1, 1), stride=(1, 1), bias=False)\n      (3): BatchNorm2d(32, eps=1e-05, momentum=0.1, affine=True, track_running_stats=True)\n    )\n  )\n  (5): InvertedResidual(\n    (conv): Sequential(\n      (0): Conv2dNormActivation(\n        (0): Conv2d(32, 192, kernel_size=(1, 1), stride=(1, 1), bias=False)\n        (1): BatchNorm2d(192, eps=1e-05, momentum=0.1, affine=True, track_running_stats=True)\n        (2): ReLU6(inplace=True)\n      )\n      (1): Conv2dNormActivation(\n        (0): Conv2d(192, 192, kernel_size=(3, 3), stride=(1, 1), padding=(1, 1), groups=192, bias=False)\n        (1): BatchNorm2d(192, eps=1e-05, momentum=0.1, affine=True, track_running_stats=True)\n        (2): ReLU6(inplace=True)\n      )\n      (2): Conv2d(192, 32, kernel_size=(1, 1), stride=(1, 1), bias=False)\n      (3): BatchNorm2d(32, eps=1e-05, momentum=0.1, affine=True, track_running_stats=True)\n    )\n  )\n  (6): InvertedResidual(\n    (conv): Sequential(\n      (0): Conv2dNormActivation(\n        (0): Conv2d(32, 192, kernel_size=(1, 1), stride=(1, 1), bias=False)\n        (1): BatchNorm2d(192, eps=1e-05, momentum=0.1, affine=True, track_running_stats=True)\n        (2): ReLU6(inplace=True)\n      )\n      (1): Conv2dNormActivation(\n        (0): Conv2d(192, 192, kernel_size=(3, 3), stride=(1, 1), padding=(1, 1), groups=192, bias=False)\n        (1): BatchNorm2d(192, eps=1e-05, momentum=0.1, affine=True, track_running_stats=True)\n        (2): ReLU6(inplace=True)\n      )\n      (2): Conv2d(192, 32, kernel_size=(1, 1), stride=(1, 1), bias=False)\n      (3): BatchNorm2d(32, eps=1e-05, momentum=0.1, affine=True, track_running_stats=True)\n    )\n  )\n  (7): InvertedResidual(\n    (conv): Sequential(\n      (0): Conv2dNormActivation(\n        (0): Conv2d(32, 192, kernel_size=(1, 1), stride=(1, 1), bias=False)\n        (1): BatchNorm2d(192, eps=1e-05, momentum=0.1, affine=True, track_running_stats=True)\n        (2): ReLU6(inplace=True)\n      )\n      (1): Conv2dNormActivation(\n        (0): Conv2d(192, 192, kernel_size=(3, 3), stride=(2, 2), padding=(1, 1), groups=192, bias=False)\n        (1): BatchNorm2d(192, eps=1e-05, momentum=0.1, affine=True, track_running_stats=True)\n        (2): ReLU6(inplace=True)\n      )\n      (2): Conv2d(192, 64, kernel_size=(1, 1), stride=(1, 1), bias=False)\n      (3): BatchNorm2d(64, eps=1e-05, momentum=0.1, affine=True, track_running_stats=True)\n    )\n  )\n  (8): InvertedResidual(\n    (conv): Sequential(\n      (0): Conv2dNormActivation(\n        (0): Conv2d(64, 384, kernel_size=(1, 1), stride=(1, 1), bias=False)\n        (1): BatchNorm2d(384, eps=1e-05, momentum=0.1, affine=True, track_running_stats=True)\n        (2): ReLU6(inplace=True)\n      )\n      (1): Conv2dNormActivation(\n        (0): Conv2d(384, 384, kernel_size=(3, 3), stride=(1, 1), padding=(1, 1), groups=384, bias=False)\n        (1): BatchNorm2d(384, eps=1e-05, momentum=0.1, affine=True, track_running_stats=True)\n        (2): ReLU6(inplace=True)\n      )\n      (2): Conv2d(384, 64, kernel_size=(1, 1), stride=(1, 1), bias=False)\n      (3): BatchNorm2d(64, eps=1e-05, momentum=0.1, affine=True, track_running_stats=True)\n    )\n  )\n  (9): InvertedResidual(\n    (conv): Sequential(\n      (0): Conv2dNormActivation(\n        (0): Conv2d(64, 384, kernel_size=(1, 1), stride=(1, 1), bias=False)\n        (1): BatchNorm2d(384, eps=1e-05, momentum=0.1, affine=True, track_running_stats=True)\n        (2): ReLU6(inplace=True)\n      )\n      (1): Conv2dNormActivation(\n        (0): Conv2d(384, 384, kernel_size=(3, 3), stride=(1, 1), padding=(1, 1), groups=384, bias=False)\n        (1): BatchNorm2d(384, eps=1e-05, momentum=0.1, affine=True, track_running_stats=True)\n        (2): ReLU6(inplace=True)\n      )\n      (2): Conv2d(384, 64, kernel_size=(1, 1), stride=(1, 1), bias=False)\n      (3): BatchNorm2d(64, eps=1e-05, momentum=0.1, affine=True, track_running_stats=True)\n    )\n  )\n  (10): InvertedResidual(\n    (conv): Sequential(\n      (0): Conv2dNormActivation(\n        (0): Conv2d(64, 384, kernel_size=(1, 1), stride=(1, 1), bias=False)\n        (1): BatchNorm2d(384, eps=1e-05, momentum=0.1, affine=True, track_running_stats=True)\n        (2): ReLU6(inplace=True)\n      )\n      (1): Conv2dNormActivation(\n        (0): Conv2d(384, 384, kernel_size=(3, 3), stride=(1, 1), padding=(1, 1), groups=384, bias=False)\n        (1): BatchNorm2d(384, eps=1e-05, momentum=0.1, affine=True, track_running_stats=True)\n        (2): ReLU6(inplace=True)\n      )\n      (2): Conv2d(384, 64, kernel_size=(1, 1), stride=(1, 1), bias=False)\n      (3): BatchNorm2d(64, eps=1e-05, momentum=0.1, affine=True, track_running_stats=True)\n    )\n  )\n  (11): InvertedResidual(\n    (conv): Sequential(\n      (0): Conv2dNormActivation(\n        (0): Conv2d(64, 384, kernel_size=(1, 1), stride=(1, 1), bias=False)\n        (1): BatchNorm2d(384, eps=1e-05, momentum=0.1, affine=True, track_running_stats=True)\n        (2): ReLU6(inplace=True)\n      )\n      (1): Conv2dNormActivation(\n        (0): Conv2d(384, 384, kernel_size=(3, 3), stride=(1, 1), padding=(1, 1), groups=384, bias=False)\n        (1): BatchNorm2d(384, eps=1e-05, momentum=0.1, affine=True, track_running_stats=True)\n        (2): ReLU6(inplace=True)\n      )\n      (2): Conv2d(384, 96, kernel_size=(1, 1), stride=(1, 1), bias=False)\n      (3): BatchNorm2d(96, eps=1e-05, momentum=0.1, affine=True, track_running_stats=True)\n    )\n  )\n  (12): InvertedResidual(\n    (conv): Sequential(\n      (0): Conv2dNormActivation(\n        (0): Conv2d(96, 576, kernel_size=(1, 1), stride=(1, 1), bias=False)\n        (1): BatchNorm2d(576, eps=1e-05, momentum=0.1, affine=True, track_running_stats=True)\n        (2): ReLU6(inplace=True)\n      )\n      (1): Conv2dNormActivation(\n        (0): Conv2d(576, 576, kernel_size=(3, 3), stride=(1, 1), padding=(1, 1), groups=576, bias=False)\n        (1): BatchNorm2d(576, eps=1e-05, momentum=0.1, affine=True, track_running_stats=True)\n        (2): ReLU6(inplace=True)\n      )\n      (2): Conv2d(576, 96, kernel_size=(1, 1), stride=(1, 1), bias=False)\n      (3): BatchNorm2d(96, eps=1e-05, momentum=0.1, affine=True, track_running_stats=True)\n    )\n  )\n  (13): InvertedResidual(\n    (conv): Sequential(\n      (0): Conv2dNormActivation(\n        (0): Conv2d(96, 576, kernel_size=(1, 1), stride=(1, 1), bias=False)\n        (1): BatchNorm2d(576, eps=1e-05, momentum=0.1, affine=True, track_running_stats=True)\n        (2): ReLU6(inplace=True)\n      )\n      (1): Conv2dNormActivation(\n        (0): Conv2d(576, 576, kernel_size=(3, 3), stride=(1, 1), padding=(1, 1), groups=576, bias=False)\n        (1): BatchNorm2d(576, eps=1e-05, momentum=0.1, affine=True, track_running_stats=True)\n        (2): ReLU6(inplace=True)\n      )\n      (2): Conv2d(576, 96, kernel_size=(1, 1), stride=(1, 1), bias=False)\n      (3): BatchNorm2d(96, eps=1e-05, momentum=0.1, affine=True, track_running_stats=True)\n    )\n  )\n  (14): InvertedResidual(\n    (conv): Sequential(\n      (0): Conv2dNormActivation(\n        (0): Conv2d(96, 576, kernel_size=(1, 1), stride=(1, 1), bias=False)\n        (1): BatchNorm2d(576, eps=1e-05, momentum=0.1, affine=True, track_running_stats=True)\n        (2): ReLU6(inplace=True)\n      )\n      (1): Conv2dNormActivation(\n        (0): Conv2d(576, 576, kernel_size=(3, 3), stride=(2, 2), padding=(1, 1), groups=576, bias=False)\n        (1): BatchNorm2d(576, eps=1e-05, momentum=0.1, affine=True, track_running_stats=True)\n        (2): ReLU6(inplace=True)\n      )\n      (2): Conv2d(576, 160, kernel_size=(1, 1), stride=(1, 1), bias=False)\n      (3): BatchNorm2d(160, eps=1e-05, momentum=0.1, affine=True, track_running_stats=True)\n    )\n  )\n  (15): InvertedResidual(\n    (conv): Sequential(\n      (0): Conv2dNormActivation(\n        (0): Conv2d(160, 960, kernel_size=(1, 1), stride=(1, 1), bias=False)\n        (1): BatchNorm2d(960, eps=1e-05, momentum=0.1, affine=True, track_running_stats=True)\n        (2): ReLU6(inplace=True)\n      )\n      (1): Conv2dNormActivation(\n        (0): Conv2d(960, 960, kernel_size=(3, 3), stride=(1, 1), padding=(1, 1), groups=960, bias=False)\n        (1): BatchNorm2d(960, eps=1e-05, momentum=0.1, affine=True, track_running_stats=True)\n        (2): ReLU6(inplace=True)\n      )\n      (2): Conv2d(960, 160, kernel_size=(1, 1), stride=(1, 1), bias=False)\n      (3): BatchNorm2d(160, eps=1e-05, momentum=0.1, affine=True, track_running_stats=True)\n    )\n  )\n  (16): InvertedResidual(\n    (conv): Sequential(\n      (0): Conv2dNormActivation(\n        (0): Conv2d(160, 960, kernel_size=(1, 1), stride=(1, 1), bias=False)\n        (1): BatchNorm2d(960, eps=1e-05, momentum=0.1, affine=True, track_running_stats=True)\n        (2): ReLU6(inplace=True)\n      )\n      (1): Conv2dNormActivation(\n        (0): Conv2d(960, 960, kernel_size=(3, 3), stride=(1, 1), padding=(1, 1), groups=960, bias=False)\n        (1): BatchNorm2d(960, eps=1e-05, momentum=0.1, affine=True, track_running_stats=True)\n        (2): ReLU6(inplace=True)\n      )\n      (2): Conv2d(960, 160, kernel_size=(1, 1), stride=(1, 1), bias=False)\n      (3): BatchNorm2d(160, eps=1e-05, momentum=0.1, affine=True, track_running_stats=True)\n    )\n  )\n  (17): InvertedResidual(\n    (conv): Sequential(\n      (0): Conv2dNormActivation(\n        (0): Conv2d(160, 960, kernel_size=(1, 1), stride=(1, 1), bias=False)\n        (1): BatchNorm2d(960, eps=1e-05, momentum=0.1, affine=True, track_running_stats=True)\n        (2): ReLU6(inplace=True)\n      )\n      (1): Conv2dNormActivation(\n        (0): Conv2d(960, 960, kernel_size=(3, 3), stride=(1, 1), padding=(1, 1), groups=960, bias=False)\n        (1): BatchNorm2d(960, eps=1e-05, momentum=0.1, affine=True, track_running_stats=True)\n        (2): ReLU6(inplace=True)\n      )\n      (2): Conv2d(960, 320, kernel_size=(1, 1), stride=(1, 1), bias=False)\n      (3): BatchNorm2d(320, eps=1e-05, momentum=0.1, affine=True, track_running_stats=True)\n    )\n  )\n  (18): Conv2dNormActivation(\n    (0): Conv2d(320, 1280, kernel_size=(1, 1), stride=(1, 1), bias=False)\n    (1): BatchNorm2d(1280, eps=1e-05, momentum=0.1, affine=True, track_running_stats=True)\n    (2): ReLU6(inplace=True)\n  )\n)",
                    "features.0": "Conv2dNormActivation(\n  (0): Conv2d(3, 32, kernel_size=(3, 3), stride=(2, 2), padding=(1, 1), bias=False)\n  (1): BatchNorm2d(32, eps=1e-05, momentum=0.1, affine=True, track_running_stats=True)\n  (2): ReLU6(inplace=True)\n)",
                    "features.0.0": "Conv2d(3, 32, kernel_size=(3, 3), stride=(2, 2), padding=(1, 1), bias=False)",
                    "features.0.1": "BatchNorm2d(32, eps=1e-05, momentum=0.1, affine=True, track_running_stats=True)",
                    "features.0.2": "ReLU6(inplace=True)",
                    "features.1": "InvertedResidual(\n  (conv): Sequential(\n    (0): Conv2dNormActivation(\n      (0): Conv2d(32, 32, kernel_size=(3, 3), stride=(1, 1), padding=(1, 1), groups=32, bias=False)\n      (1): BatchNorm2d(32, eps=1e-05, momentum=0.1, affine=True, track_running_stats=True)\n      (2): ReLU6(inplace=True)\n    )\n    (1): Conv2d(32, 16, kernel_size=(1, 1), stride=(1, 1), bias=False)\n    (2): BatchNorm2d(16, eps=1e-05, momentum=0.1, affine=True, track_running_stats=True)\n  )\n)",
                    "features.1.conv": "Sequential(\n  (0): Conv2dNormActivation(\n    (0): Conv2d(32, 32, kernel_size=(3, 3), stride=(1, 1), padding=(1, 1), groups=32, bias=False)\n    (1): BatchNorm2d(32, eps=1e-05, momentum=0.1, affine=True, track_running_stats=True)\n    (2): ReLU6(inplace=True)\n  )\n  (1): Conv2d(32, 16, kernel_size=(1, 1), stride=(1, 1), bias=False)\n  (2): BatchNorm2d(16, eps=1e-05, momentum=0.1, affine=True, track_running_stats=True)\n)",
                    "features.1.conv.0": "Conv2dNormActivation(\n  (0): Conv2d(32, 32, kernel_size=(3, 3), stride=(1, 1), padding=(1, 1), groups=32, bias=False)\n  (1): BatchNorm2d(32, eps=1e-05, momentum=0.1, affine=True, track_running_stats=True)\n  (2): ReLU6(inplace=True)\n)",
                    "features.1.conv.0.0": "Conv2d(32, 32, kernel_size=(3, 3), stride=(1, 1), padding=(1, 1), groups=32, bias=False)",
                    "features.1.conv.0.1": "BatchNorm2d(32, eps=1e-05, momentum=0.1, affine=True, track_running_stats=True)",
                    "features.1.conv.0.2": "ReLU6(inplace=True)",
                    "features.1.conv.1": "Conv2d(32, 16, kernel_size=(1, 1), stride=(1, 1), bias=False)",
                    "features.1.conv.2": "BatchNorm2d(16, eps=1e-05, momentum=0.1, affine=True, track_running_stats=True)",
                    "features.2": "InvertedResidual(\n  (conv): Sequential(\n    (0): Conv2dNormActivation(\n      (0): Conv2d(16, 96, kernel_size=(1, 1), stride=(1, 1), bias=False)\n      (1): BatchNorm2d(96, eps=1e-05, momentum=0.1, affine=True, track_running_stats=True)\n      (2): ReLU6(inplace=True)\n    )\n    (1): Conv2dNormActivation(\n      (0): Conv2d(96, 96, kernel_size=(3, 3), stride=(2, 2), padding=(1, 1), groups=96, bias=False)\n      (1): BatchNorm2d(96, eps=1e-05, momentum=0.1, affine=True, track_running_stats=True)\n      (2): ReLU6(inplace=True)\n    )\n    (2): Conv2d(96, 24, kernel_size=(1, 1), stride=(1, 1), bias=False)\n    (3): BatchNorm2d(24, eps=1e-05, momentum=0.1, affine=True, track_running_stats=True)\n  )\n)",
                    "features.2.conv": "Sequential(\n  (0): Conv2dNormActivation(\n    (0): Conv2d(16, 96, kernel_size=(1, 1), stride=(1, 1), bias=False)\n    (1): BatchNorm2d(96, eps=1e-05, momentum=0.1, affine=True, track_running_stats=True)\n    (2): ReLU6(inplace=True)\n  )\n  (1): Conv2dNormActivation(\n    (0): Conv2d(96, 96, kernel_size=(3, 3), stride=(2, 2), padding=(1, 1), groups=96, bias=False)\n    (1): BatchNorm2d(96, eps=1e-05, momentum=0.1, affine=True, track_running_stats=True)\n    (2): ReLU6(inplace=True)\n  )\n  (2): Conv2d(96, 24, kernel_size=(1, 1), stride=(1, 1), bias=False)\n  (3): BatchNorm2d(24, eps=1e-05, momentum=0.1, affine=True, track_running_stats=True)\n)",
                    "features.2.conv.0": "Conv2dNormActivation(\n  (0): Conv2d(16, 96, kernel_size=(1, 1), stride=(1, 1), bias=False)\n  (1): BatchNorm2d(96, eps=1e-05, momentum=0.1, affine=True, track_running_stats=True)\n  (2): ReLU6(inplace=True)\n)",
                    "features.2.conv.0.0": "Conv2d(16, 96, kernel_size=(1, 1), stride=(1, 1), bias=False)",
                    "features.2.conv.0.1": "BatchNorm2d(96, eps=1e-05, momentum=0.1, affine=True, track_running_stats=True)",
                    "features.2.conv.0.2": "ReLU6(inplace=True)",
                    "features.2.conv.1": "Conv2dNormActivation(\n  (0): Conv2d(96, 96, kernel_size=(3, 3), stride=(2, 2), padding=(1, 1), groups=96, bias=False)\n  (1): BatchNorm2d(96, eps=1e-05, momentum=0.1, affine=True, track_running_stats=True)\n  (2): ReLU6(inplace=True)\n)",
                    "features.2.conv.1.0": "Conv2d(96, 96, kernel_size=(3, 3), stride=(2, 2), padding=(1, 1), groups=96, bias=False)",
                    "features.2.conv.1.1": "BatchNorm2d(96, eps=1e-05, momentum=0.1, affine=True, track_running_stats=True)",
                    "features.2.conv.1.2": "ReLU6(inplace=True)",
                    "features.2.conv.2": "Conv2d(96, 24, kernel_size=(1, 1), stride=(1, 1), bias=False)",
                    "features.2.conv.3": "BatchNorm2d(24, eps=1e-05, momentum=0.1, affine=True, track_running_stats=True)",
                    "features.3": "InvertedResidual(\n  (conv): Sequential(\n    (0): Conv2dNormActivation(\n      (0): Conv2d(24, 144, kernel_size=(1, 1), stride=(1, 1), bias=False)\n      (1): BatchNorm2d(144, eps=1e-05, momentum=0.1, affine=True, track_running_stats=True)\n      (2): ReLU6(inplace=True)\n    )\n    (1): Conv2dNormActivation(\n      (0): Conv2d(144, 144, kernel_size=(3, 3), stride=(1, 1), padding=(1, 1), groups=144, bias=False)\n      (1): BatchNorm2d(144, eps=1e-05, momentum=0.1, affine=True, track_running_stats=True)\n      (2): ReLU6(inplace=True)\n    )\n    (2): Conv2d(144, 24, kernel_size=(1, 1), stride=(1, 1), bias=False)\n    (3): BatchNorm2d(24, eps=1e-05, momentum=0.1, affine=True, track_running_stats=True)\n  )\n)",
                    "features.3.conv": "Sequential(\n  (0): Conv2dNormActivation(\n    (0): Conv2d(24, 144, kernel_size=(1, 1), stride=(1, 1), bias=False)\n    (1): BatchNorm2d(144, eps=1e-05, momentum=0.1, affine=True, track_running_stats=True)\n    (2): ReLU6(inplace=True)\n  )\n  (1): Conv2dNormActivation(\n    (0): Conv2d(144, 144, kernel_size=(3, 3), stride=(1, 1), padding=(1, 1), groups=144, bias=False)\n    (1): BatchNorm2d(144, eps=1e-05, momentum=0.1, affine=True, track_running_stats=True)\n    (2): ReLU6(inplace=True)\n  )\n  (2): Conv2d(144, 24, kernel_size=(1, 1), stride=(1, 1), bias=False)\n  (3): BatchNorm2d(24, eps=1e-05, momentum=0.1, affine=True, track_running_stats=True)\n)",
                    "features.3.conv.0": "Conv2dNormActivation(\n  (0): Conv2d(24, 144, kernel_size=(1, 1), stride=(1, 1), bias=False)\n  (1): BatchNorm2d(144, eps=1e-05, momentum=0.1, affine=True, track_running_stats=True)\n  (2): ReLU6(inplace=True)\n)",
                    "features.3.conv.0.0": "Conv2d(24, 144, kernel_size=(1, 1), stride=(1, 1), bias=False)",
                    "features.3.conv.0.1": "BatchNorm2d(144, eps=1e-05, momentum=0.1, affine=True, track_running_stats=True)",
                    "features.3.conv.0.2": "ReLU6(inplace=True)",
                    "features.3.conv.1": "Conv2dNormActivation(\n  (0): Conv2d(144, 144, kernel_size=(3, 3), stride=(1, 1), padding=(1, 1), groups=144, bias=False)\n  (1): BatchNorm2d(144, eps=1e-05, momentum=0.1, affine=True, track_running_stats=True)\n  (2): ReLU6(inplace=True)\n)",
                    "features.3.conv.1.0": "Conv2d(144, 144, kernel_size=(3, 3), stride=(1, 1), padding=(1, 1), groups=144, bias=False)",
                    "features.3.conv.1.1": "BatchNorm2d(144, eps=1e-05, momentum=0.1, affine=True, track_running_stats=True)",
                    "features.3.conv.1.2": "ReLU6(inplace=True)",
                    "features.3.conv.2": "Conv2d(144, 24, kernel_size=(1, 1), stride=(1, 1), bias=False)",
                    "features.3.conv.3": "BatchNorm2d(24, eps=1e-05, momentum=0.1, affine=True, track_running_stats=True)",
                    "features.4": "InvertedResidual(\n  (conv): Sequential(\n    (0): Conv2dNormActivation(\n      (0): Conv2d(24, 144, kernel_size=(1, 1), stride=(1, 1), bias=False)\n      (1): BatchNorm2d(144, eps=1e-05, momentum=0.1, affine=True, track_running_stats=True)\n      (2): ReLU6(inplace=True)\n    )\n    (1): Conv2dNormActivation(\n      (0): Conv2d(144, 144, kernel_size=(3, 3), stride=(2, 2), padding=(1, 1), groups=144, bias=False)\n      (1): BatchNorm2d(144, eps=1e-05, momentum=0.1, affine=True, track_running_stats=True)\n      (2): ReLU6(inplace=True)\n    )\n    (2): Conv2d(144, 32, kernel_size=(1, 1), stride=(1, 1), bias=False)\n    (3): BatchNorm2d(32, eps=1e-05, momentum=0.1, affine=True, track_running_stats=True)\n  )\n)",
                    "features.4.conv": "Sequential(\n  (0): Conv2dNormActivation(\n    (0): Conv2d(24, 144, kernel_size=(1, 1), stride=(1, 1), bias=False)\n    (1): BatchNorm2d(144, eps=1e-05, momentum=0.1, affine=True, track_running_stats=True)\n    (2): ReLU6(inplace=True)\n  )\n  (1): Conv2dNormActivation(\n    (0): Conv2d(144, 144, kernel_size=(3, 3), stride=(2, 2), padding=(1, 1), groups=144, bias=False)\n    (1): BatchNorm2d(144, eps=1e-05, momentum=0.1, affine=True, track_running_stats=True)\n    (2): ReLU6(inplace=True)\n  )\n  (2): Conv2d(144, 32, kernel_size=(1, 1), stride=(1, 1), bias=False)\n  (3): BatchNorm2d(32, eps=1e-05, momentum=0.1, affine=True, track_running_stats=True)\n)",
                    "features.4.conv.0": "Conv2dNormActivation(\n  (0): Conv2d(24, 144, kernel_size=(1, 1), stride=(1, 1), bias=False)\n  (1): BatchNorm2d(144, eps=1e-05, momentum=0.1, affine=True, track_running_stats=True)\n  (2): ReLU6(inplace=True)\n)",
                    "features.4.conv.0.0": "Conv2d(24, 144, kernel_size=(1, 1), stride=(1, 1), bias=False)",
                    "features.4.conv.0.1": "BatchNorm2d(144, eps=1e-05, momentum=0.1, affine=True, track_running_stats=True)",
                    "features.4.conv.0.2": "ReLU6(inplace=True)",
                    "features.4.conv.1": "Conv2dNormActivation(\n  (0): Conv2d(144, 144, kernel_size=(3, 3), stride=(2, 2), padding=(1, 1), groups=144, bias=False)\n  (1): BatchNorm2d(144, eps=1e-05, momentum=0.1, affine=True, track_running_stats=True)\n  (2): ReLU6(inplace=True)\n)",
                    "features.4.conv.1.0": "Conv2d(144, 144, kernel_size=(3, 3), stride=(2, 2), padding=(1, 1), groups=144, bias=False)",
                    "features.4.conv.1.1": "BatchNorm2d(144, eps=1e-05, momentum=0.1, affine=True, track_running_stats=True)",
                    "features.4.conv.1.2": "ReLU6(inplace=True)",
                    "features.4.conv.2": "Conv2d(144, 32, kernel_size=(1, 1), stride=(1, 1), bias=False)",
                    "features.4.conv.3": "BatchNorm2d(32, eps=1e-05, momentum=0.1, affine=True, track_running_stats=True)",
                    "features.5": "InvertedResidual(\n  (conv): Sequential(\n    (0): Conv2dNormActivation(\n      (0): Conv2d(32, 192, kernel_size=(1, 1), stride=(1, 1), bias=False)\n      (1): BatchNorm2d(192, eps=1e-05, momentum=0.1, affine=True, track_running_stats=True)\n      (2): ReLU6(inplace=True)\n    )\n    (1): Conv2dNormActivation(\n      (0): Conv2d(192, 192, kernel_size=(3, 3), stride=(1, 1), padding=(1, 1), groups=192, bias=False)\n      (1): BatchNorm2d(192, eps=1e-05, momentum=0.1, affine=True, track_running_stats=True)\n      (2): ReLU6(inplace=True)\n    )\n    (2): Conv2d(192, 32, kernel_size=(1, 1), stride=(1, 1), bias=False)\n    (3): BatchNorm2d(32, eps=1e-05, momentum=0.1, affine=True, track_running_stats=True)\n  )\n)",
                    "features.5.conv": "Sequential(\n  (0): Conv2dNormActivation(\n    (0): Conv2d(32, 192, kernel_size=(1, 1), stride=(1, 1), bias=False)\n    (1): BatchNorm2d(192, eps=1e-05, momentum=0.1, affine=True, track_running_stats=True)\n    (2): ReLU6(inplace=True)\n  )\n  (1): Conv2dNormActivation(\n    (0): Conv2d(192, 192, kernel_size=(3, 3), stride=(1, 1), padding=(1, 1), groups=192, bias=False)\n    (1): BatchNorm2d(192, eps=1e-05, momentum=0.1, affine=True, track_running_stats=True)\n    (2): ReLU6(inplace=True)\n  )\n  (2): Conv2d(192, 32, kernel_size=(1, 1), stride=(1, 1), bias=False)\n  (3): BatchNorm2d(32, eps=1e-05, momentum=0.1, affine=True, track_running_stats=True)\n)",
                    "features.5.conv.0": "Conv2dNormActivation(\n  (0): Conv2d(32, 192, kernel_size=(1, 1), stride=(1, 1), bias=False)\n  (1): BatchNorm2d(192, eps=1e-05, momentum=0.1, affine=True, track_running_stats=True)\n  (2): ReLU6(inplace=True)\n)",
                    "features.5.conv.0.0": "Conv2d(32, 192, kernel_size=(1, 1), stride=(1, 1), bias=False)",
                    "features.5.conv.0.1": "BatchNorm2d(192, eps=1e-05, momentum=0.1, affine=True, track_running_stats=True)",
                    "features.5.conv.0.2": "ReLU6(inplace=True)",
                    "features.5.conv.1": "Conv2dNormActivation(\n  (0): Conv2d(192, 192, kernel_size=(3, 3), stride=(1, 1), padding=(1, 1), groups=192, bias=False)\n  (1): BatchNorm2d(192, eps=1e-05, momentum=0.1, affine=True, track_running_stats=True)\n  (2): ReLU6(inplace=True)\n)",
                    "features.5.conv.1.0": "Conv2d(192, 192, kernel_size=(3, 3), stride=(1, 1), padding=(1, 1), groups=192, bias=False)",
                    "features.5.conv.1.1": "BatchNorm2d(192, eps=1e-05, momentum=0.1, affine=True, track_running_stats=True)",
                    "features.5.conv.1.2": "ReLU6(inplace=True)",
                    "features.5.conv.2": "Conv2d(192, 32, kernel_size=(1, 1), stride=(1, 1), bias=False)",
                    "features.5.conv.3": "BatchNorm2d(32, eps=1e-05, momentum=0.1, affine=True, track_running_stats=True)",
                    "features.6": "InvertedResidual(\n  (conv): Sequential(\n    (0): Conv2dNormActivation(\n      (0): Conv2d(32, 192, kernel_size=(1, 1), stride=(1, 1), bias=False)\n      (1): BatchNorm2d(192, eps=1e-05, momentum=0.1, affine=True, track_running_stats=True)\n      (2): ReLU6(inplace=True)\n    )\n    (1): Conv2dNormActivation(\n      (0): Conv2d(192, 192, kernel_size=(3, 3), stride=(1, 1), padding=(1, 1), groups=192, bias=False)\n      (1): BatchNorm2d(192, eps=1e-05, momentum=0.1, affine=True, track_running_stats=True)\n      (2): ReLU6(inplace=True)\n    )\n    (2): Conv2d(192, 32, kernel_size=(1, 1), stride=(1, 1), bias=False)\n    (3): BatchNorm2d(32, eps=1e-05, momentum=0.1, affine=True, track_running_stats=True)\n  )\n)",
                    "features.6.conv": "Sequential(\n  (0): Conv2dNormActivation(\n    (0): Conv2d(32, 192, kernel_size=(1, 1), stride=(1, 1), bias=False)\n    (1): BatchNorm2d(192, eps=1e-05, momentum=0.1, affine=True, track_running_stats=True)\n    (2): ReLU6(inplace=True)\n  )\n  (1): Conv2dNormActivation(\n    (0): Conv2d(192, 192, kernel_size=(3, 3), stride=(1, 1), padding=(1, 1), groups=192, bias=False)\n    (1): BatchNorm2d(192, eps=1e-05, momentum=0.1, affine=True, track_running_stats=True)\n    (2): ReLU6(inplace=True)\n  )\n  (2): Conv2d(192, 32, kernel_size=(1, 1), stride=(1, 1), bias=False)\n  (3): BatchNorm2d(32, eps=1e-05, momentum=0.1, affine=True, track_running_stats=True)\n)",
                    "features.6.conv.0": "Conv2dNormActivation(\n  (0): Conv2d(32, 192, kernel_size=(1, 1), stride=(1, 1), bias=False)\n  (1): BatchNorm2d(192, eps=1e-05, momentum=0.1, affine=True, track_running_stats=True)\n  (2): ReLU6(inplace=True)\n)",
                    "features.6.conv.0.0": "Conv2d(32, 192, kernel_size=(1, 1), stride=(1, 1), bias=False)",
                    "features.6.conv.0.1": "BatchNorm2d(192, eps=1e-05, momentum=0.1, affine=True, track_running_stats=True)",
                    "features.6.conv.0.2": "ReLU6(inplace=True)",
                    "features.6.conv.1": "Conv2dNormActivation(\n  (0): Conv2d(192, 192, kernel_size=(3, 3), stride=(1, 1), padding=(1, 1), groups=192, bias=False)\n  (1): BatchNorm2d(192, eps=1e-05, momentum=0.1, affine=True, track_running_stats=True)\n  (2): ReLU6(inplace=True)\n)",
                    "features.6.conv.1.0": "Conv2d(192, 192, kernel_size=(3, 3), stride=(1, 1), padding=(1, 1), groups=192, bias=False)",
                    "features.6.conv.1.1": "BatchNorm2d(192, eps=1e-05, momentum=0.1, affine=True, track_running_stats=True)",
                    "features.6.conv.1.2": "ReLU6(inplace=True)",
                    "features.6.conv.2": "Conv2d(192, 32, kernel_size=(1, 1), stride=(1, 1), bias=False)",
                    "features.6.conv.3": "BatchNorm2d(32, eps=1e-05, momentum=0.1, affine=True, track_running_stats=True)",
                    "features.7": "InvertedResidual(\n  (conv): Sequential(\n    (0): Conv2dNormActivation(\n      (0): Conv2d(32, 192, kernel_size=(1, 1), stride=(1, 1), bias=False)\n      (1): BatchNorm2d(192, eps=1e-05, momentum=0.1, affine=True, track_running_stats=True)\n      (2): ReLU6(inplace=True)\n    )\n    (1): Conv2dNormActivation(\n      (0): Conv2d(192, 192, kernel_size=(3, 3), stride=(2, 2), padding=(1, 1), groups=192, bias=False)\n      (1): BatchNorm2d(192, eps=1e-05, momentum=0.1, affine=True, track_running_stats=True)\n      (2): ReLU6(inplace=True)\n    )\n    (2): Conv2d(192, 64, kernel_size=(1, 1), stride=(1, 1), bias=False)\n    (3): BatchNorm2d(64, eps=1e-05, momentum=0.1, affine=True, track_running_stats=True)\n  )\n)",
                    "features.7.conv": "Sequential(\n  (0): Conv2dNormActivation(\n    (0): Conv2d(32, 192, kernel_size=(1, 1), stride=(1, 1), bias=False)\n    (1): BatchNorm2d(192, eps=1e-05, momentum=0.1, affine=True, track_running_stats=True)\n    (2): ReLU6(inplace=True)\n  )\n  (1): Conv2dNormActivation(\n    (0): Conv2d(192, 192, kernel_size=(3, 3), stride=(2, 2), padding=(1, 1), groups=192, bias=False)\n    (1): BatchNorm2d(192, eps=1e-05, momentum=0.1, affine=True, track_running_stats=True)\n    (2): ReLU6(inplace=True)\n  )\n  (2): Conv2d(192, 64, kernel_size=(1, 1), stride=(1, 1), bias=False)\n  (3): BatchNorm2d(64, eps=1e-05, momentum=0.1, affine=True, track_running_stats=True)\n)",
                    "features.7.conv.0": "Conv2dNormActivation(\n  (0): Conv2d(32, 192, kernel_size=(1, 1), stride=(1, 1), bias=False)\n  (1): BatchNorm2d(192, eps=1e-05, momentum=0.1, affine=True, track_running_stats=True)\n  (2): ReLU6(inplace=True)\n)",
                    "features.7.conv.0.0": "Conv2d(32, 192, kernel_size=(1, 1), stride=(1, 1), bias=False)",
                    "features.7.conv.0.1": "BatchNorm2d(192, eps=1e-05, momentum=0.1, affine=True, track_running_stats=True)",
                    "features.7.conv.0.2": "ReLU6(inplace=True)",
                    "features.7.conv.1": "Conv2dNormActivation(\n  (0): Conv2d(192, 192, kernel_size=(3, 3), stride=(2, 2), padding=(1, 1), groups=192, bias=False)\n  (1): BatchNorm2d(192, eps=1e-05, momentum=0.1, affine=True, track_running_stats=True)\n  (2): ReLU6(inplace=True)\n)",
                    "features.7.conv.1.0": "Conv2d(192, 192, kernel_size=(3, 3), stride=(2, 2), padding=(1, 1), groups=192, bias=False)",
                    "features.7.conv.1.1": "BatchNorm2d(192, eps=1e-05, momentum=0.1, affine=True, track_running_stats=True)",
                    "features.7.conv.1.2": "ReLU6(inplace=True)",
                    "features.7.conv.2": "Conv2d(192, 64, kernel_size=(1, 1), stride=(1, 1), bias=False)",
                    "features.7.conv.3": "BatchNorm2d(64, eps=1e-05, momentum=0.1, affine=True, track_running_stats=True)",
                    "features.8": "InvertedResidual(\n  (conv): Sequential(\n    (0): Conv2dNormActivation(\n      (0): Conv2d(64, 384, kernel_size=(1, 1), stride=(1, 1), bias=False)\n      (1): BatchNorm2d(384, eps=1e-05, momentum=0.1, affine=True, track_running_stats=True)\n      (2): ReLU6(inplace=True)\n    )\n    (1): Conv2dNormActivation(\n      (0): Conv2d(384, 384, kernel_size=(3, 3), stride=(1, 1), padding=(1, 1), groups=384, bias=False)\n      (1): BatchNorm2d(384, eps=1e-05, momentum=0.1, affine=True, track_running_stats=True)\n      (2): ReLU6(inplace=True)\n    )\n    (2): Conv2d(384, 64, kernel_size=(1, 1), stride=(1, 1), bias=False)\n    (3): BatchNorm2d(64, eps=1e-05, momentum=0.1, affine=True, track_running_stats=True)\n  )\n)",
                    "features.8.conv": "Sequential(\n  (0): Conv2dNormActivation(\n    (0): Conv2d(64, 384, kernel_size=(1, 1), stride=(1, 1), bias=False)\n    (1): BatchNorm2d(384, eps=1e-05, momentum=0.1, affine=True, track_running_stats=True)\n    (2): ReLU6(inplace=True)\n  )\n  (1): Conv2dNormActivation(\n    (0): Conv2d(384, 384, kernel_size=(3, 3), stride=(1, 1), padding=(1, 1), groups=384, bias=False)\n    (1): BatchNorm2d(384, eps=1e-05, momentum=0.1, affine=True, track_running_stats=True)\n    (2): ReLU6(inplace=True)\n  )\n  (2): Conv2d(384, 64, kernel_size=(1, 1), stride=(1, 1), bias=False)\n  (3): BatchNorm2d(64, eps=1e-05, momentum=0.1, affine=True, track_running_stats=True)\n)",
                    "features.8.conv.0": "Conv2dNormActivation(\n  (0): Conv2d(64, 384, kernel_size=(1, 1), stride=(1, 1), bias=False)\n  (1): BatchNorm2d(384, eps=1e-05, momentum=0.1, affine=True, track_running_stats=True)\n  (2): ReLU6(inplace=True)\n)",
                    "features.8.conv.0.0": "Conv2d(64, 384, kernel_size=(1, 1), stride=(1, 1), bias=False)",
                    "features.8.conv.0.1": "BatchNorm2d(384, eps=1e-05, momentum=0.1, affine=True, track_running_stats=True)",
                    "features.8.conv.0.2": "ReLU6(inplace=True)",
                    "features.8.conv.1": "Conv2dNormActivation(\n  (0): Conv2d(384, 384, kernel_size=(3, 3), stride=(1, 1), padding=(1, 1), groups=384, bias=False)\n  (1): BatchNorm2d(384, eps=1e-05, momentum=0.1, affine=True, track_running_stats=True)\n  (2): ReLU6(inplace=True)\n)",
                    "features.8.conv.1.0": "Conv2d(384, 384, kernel_size=(3, 3), stride=(1, 1), padding=(1, 1), groups=384, bias=False)",
                    "features.8.conv.1.1": "BatchNorm2d(384, eps=1e-05, momentum=0.1, affine=True, track_running_stats=True)",
                    "features.8.conv.1.2": "ReLU6(inplace=True)",
                    "features.8.conv.2": "Conv2d(384, 64, kernel_size=(1, 1), stride=(1, 1), bias=False)",
                    "features.8.conv.3": "BatchNorm2d(64, eps=1e-05, momentum=0.1, affine=True, track_running_stats=True)",
                    "features.9": "InvertedResidual(\n  (conv): Sequential(\n    (0): Conv2dNormActivation(\n      (0): Conv2d(64, 384, kernel_size=(1, 1), stride=(1, 1), bias=False)\n      (1): BatchNorm2d(384, eps=1e-05, momentum=0.1, affine=True, track_running_stats=True)\n      (2): ReLU6(inplace=True)\n    )\n    (1): Conv2dNormActivation(\n      (0): Conv2d(384, 384, kernel_size=(3, 3), stride=(1, 1), padding=(1, 1), groups=384, bias=False)\n      (1): BatchNorm2d(384, eps=1e-05, momentum=0.1, affine=True, track_running_stats=True)\n      (2): ReLU6(inplace=True)\n    )\n    (2): Conv2d(384, 64, kernel_size=(1, 1), stride=(1, 1), bias=False)\n    (3): BatchNorm2d(64, eps=1e-05, momentum=0.1, affine=True, track_running_stats=True)\n  )\n)",
                    "features.9.conv": "Sequential(\n  (0): Conv2dNormActivation(\n    (0): Conv2d(64, 384, kernel_size=(1, 1), stride=(1, 1), bias=False)\n    (1): BatchNorm2d(384, eps=1e-05, momentum=0.1, affine=True, track_running_stats=True)\n    (2): ReLU6(inplace=True)\n  )\n  (1): Conv2dNormActivation(\n    (0): Conv2d(384, 384, kernel_size=(3, 3), stride=(1, 1), padding=(1, 1), groups=384, bias=False)\n    (1): BatchNorm2d(384, eps=1e-05, momentum=0.1, affine=True, track_running_stats=True)\n    (2): ReLU6(inplace=True)\n  )\n  (2): Conv2d(384, 64, kernel_size=(1, 1), stride=(1, 1), bias=False)\n  (3): BatchNorm2d(64, eps=1e-05, momentum=0.1, affine=True, track_running_stats=True)\n)",
                    "features.9.conv.0": "Conv2dNormActivation(\n  (0): Conv2d(64, 384, kernel_size=(1, 1), stride=(1, 1), bias=False)\n  (1): BatchNorm2d(384, eps=1e-05, momentum=0.1, affine=True, track_running_stats=True)\n  (2): ReLU6(inplace=True)\n)",
                    "features.9.conv.0.0": "Conv2d(64, 384, kernel_size=(1, 1), stride=(1, 1), bias=False)",
                    "features.9.conv.0.1": "BatchNorm2d(384, eps=1e-05, momentum=0.1, affine=True, track_running_stats=True)",
                    "features.9.conv.0.2": "ReLU6(inplace=True)",
                    "features.9.conv.1": "Conv2dNormActivation(\n  (0): Conv2d(384, 384, kernel_size=(3, 3), stride=(1, 1), padding=(1, 1), groups=384, bias=False)\n  (1): BatchNorm2d(384, eps=1e-05, momentum=0.1, affine=True, track_running_stats=True)\n  (2): ReLU6(inplace=True)\n)",
                    "features.9.conv.1.0": "Conv2d(384, 384, kernel_size=(3, 3), stride=(1, 1), padding=(1, 1), groups=384, bias=False)",
                    "features.9.conv.1.1": "BatchNorm2d(384, eps=1e-05, momentum=0.1, affine=True, track_running_stats=True)",
                    "features.9.conv.1.2": "ReLU6(inplace=True)",
                    "features.9.conv.2": "Conv2d(384, 64, kernel_size=(1, 1), stride=(1, 1), bias=False)",
                    "features.9.conv.3": "BatchNorm2d(64, eps=1e-05, momentum=0.1, affine=True, track_running_stats=True)",
                    "features.10": "InvertedResidual(\n  (conv): Sequential(\n    (0): Conv2dNormActivation(\n      (0): Conv2d(64, 384, kernel_size=(1, 1), stride=(1, 1), bias=False)\n      (1): BatchNorm2d(384, eps=1e-05, momentum=0.1, affine=True, track_running_stats=True)\n      (2): ReLU6(inplace=True)\n    )\n    (1): Conv2dNormActivation(\n      (0): Conv2d(384, 384, kernel_size=(3, 3), stride=(1, 1), padding=(1, 1), groups=384, bias=False)\n      (1): BatchNorm2d(384, eps=1e-05, momentum=0.1, affine=True, track_running_stats=True)\n      (2): ReLU6(inplace=True)\n    )\n    (2): Conv2d(384, 64, kernel_size=(1, 1), stride=(1, 1), bias=False)\n    (3): BatchNorm2d(64, eps=1e-05, momentum=0.1, affine=True, track_running_stats=True)\n  )\n)",
                    "features.10.conv": "Sequential(\n  (0): Conv2dNormActivation(\n    (0): Conv2d(64, 384, kernel_size=(1, 1), stride=(1, 1), bias=False)\n    (1): BatchNorm2d(384, eps=1e-05, momentum=0.1, affine=True, track_running_stats=True)\n    (2): ReLU6(inplace=True)\n  )\n  (1): Conv2dNormActivation(\n    (0): Conv2d(384, 384, kernel_size=(3, 3), stride=(1, 1), padding=(1, 1), groups=384, bias=False)\n    (1): BatchNorm2d(384, eps=1e-05, momentum=0.1, affine=True, track_running_stats=True)\n    (2): ReLU6(inplace=True)\n  )\n  (2): Conv2d(384, 64, kernel_size=(1, 1), stride=(1, 1), bias=False)\n  (3): BatchNorm2d(64, eps=1e-05, momentum=0.1, affine=True, track_running_stats=True)\n)",
                    "features.10.conv.0": "Conv2dNormActivation(\n  (0): Conv2d(64, 384, kernel_size=(1, 1), stride=(1, 1), bias=False)\n  (1): BatchNorm2d(384, eps=1e-05, momentum=0.1, affine=True, track_running_stats=True)\n  (2): ReLU6(inplace=True)\n)",
                    "features.10.conv.0.0": "Conv2d(64, 384, kernel_size=(1, 1), stride=(1, 1), bias=False)",
                    "features.10.conv.0.1": "BatchNorm2d(384, eps=1e-05, momentum=0.1, affine=True, track_running_stats=True)",
                    "features.10.conv.0.2": "ReLU6(inplace=True)",
                    "features.10.conv.1": "Conv2dNormActivation(\n  (0): Conv2d(384, 384, kernel_size=(3, 3), stride=(1, 1), padding=(1, 1), groups=384, bias=False)\n  (1): BatchNorm2d(384, eps=1e-05, momentum=0.1, affine=True, track_running_stats=True)\n  (2): ReLU6(inplace=True)\n)",
                    "features.10.conv.1.0": "Conv2d(384, 384, kernel_size=(3, 3), stride=(1, 1), padding=(1, 1), groups=384, bias=False)",
                    "features.10.conv.1.1": "BatchNorm2d(384, eps=1e-05, momentum=0.1, affine=True, track_running_stats=True)",
                    "features.10.conv.1.2": "ReLU6(inplace=True)",
                    "features.10.conv.2": "Conv2d(384, 64, kernel_size=(1, 1), stride=(1, 1), bias=False)",
                    "features.10.conv.3": "BatchNorm2d(64, eps=1e-05, momentum=0.1, affine=True, track_running_stats=True)",
                    "features.11": "InvertedResidual(\n  (conv): Sequential(\n    (0): Conv2dNormActivation(\n      (0): Conv2d(64, 384, kernel_size=(1, 1), stride=(1, 1), bias=False)\n      (1): BatchNorm2d(384, eps=1e-05, momentum=0.1, affine=True, track_running_stats=True)\n      (2): ReLU6(inplace=True)\n    )\n    (1): Conv2dNormActivation(\n      (0): Conv2d(384, 384, kernel_size=(3, 3), stride=(1, 1), padding=(1, 1), groups=384, bias=False)\n      (1): BatchNorm2d(384, eps=1e-05, momentum=0.1, affine=True, track_running_stats=True)\n      (2): ReLU6(inplace=True)\n    )\n    (2): Conv2d(384, 96, kernel_size=(1, 1), stride=(1, 1), bias=False)\n    (3): BatchNorm2d(96, eps=1e-05, momentum=0.1, affine=True, track_running_stats=True)\n  )\n)",
                    "features.11.conv": "Sequential(\n  (0): Conv2dNormActivation(\n    (0): Conv2d(64, 384, kernel_size=(1, 1), stride=(1, 1), bias=False)\n    (1): BatchNorm2d(384, eps=1e-05, momentum=0.1, affine=True, track_running_stats=True)\n    (2): ReLU6(inplace=True)\n  )\n  (1): Conv2dNormActivation(\n    (0): Conv2d(384, 384, kernel_size=(3, 3), stride=(1, 1), padding=(1, 1), groups=384, bias=False)\n    (1): BatchNorm2d(384, eps=1e-05, momentum=0.1, affine=True, track_running_stats=True)\n    (2): ReLU6(inplace=True)\n  )\n  (2): Conv2d(384, 96, kernel_size=(1, 1), stride=(1, 1), bias=False)\n  (3): BatchNorm2d(96, eps=1e-05, momentum=0.1, affine=True, track_running_stats=True)\n)",
                    "features.11.conv.0": "Conv2dNormActivation(\n  (0): Conv2d(64, 384, kernel_size=(1, 1), stride=(1, 1), bias=False)\n  (1): BatchNorm2d(384, eps=1e-05, momentum=0.1, affine=True, track_running_stats=True)\n  (2): ReLU6(inplace=True)\n)",
                    "features.11.conv.0.0": "Conv2d(64, 384, kernel_size=(1, 1), stride=(1, 1), bias=False)",
                    "features.11.conv.0.1": "BatchNorm2d(384, eps=1e-05, momentum=0.1, affine=True, track_running_stats=True)",
                    "features.11.conv.0.2": "ReLU6(inplace=True)",
                    "features.11.conv.1": "Conv2dNormActivation(\n  (0): Conv2d(384, 384, kernel_size=(3, 3), stride=(1, 1), padding=(1, 1), groups=384, bias=False)\n  (1): BatchNorm2d(384, eps=1e-05, momentum=0.1, affine=True, track_running_stats=True)\n  (2): ReLU6(inplace=True)\n)",
                    "features.11.conv.1.0": "Conv2d(384, 384, kernel_size=(3, 3), stride=(1, 1), padding=(1, 1), groups=384, bias=False)",
                    "features.11.conv.1.1": "BatchNorm2d(384, eps=1e-05, momentum=0.1, affine=True, track_running_stats=True)",
                    "features.11.conv.1.2": "ReLU6(inplace=True)",
                    "features.11.conv.2": "Conv2d(384, 96, kernel_size=(1, 1), stride=(1, 1), bias=False)",
                    "features.11.conv.3": "BatchNorm2d(96, eps=1e-05, momentum=0.1, affine=True, track_running_stats=True)",
                    "features.12": "InvertedResidual(\n  (conv): Sequential(\n    (0): Conv2dNormActivation(\n      (0): Conv2d(96, 576, kernel_size=(1, 1), stride=(1, 1), bias=False)\n      (1): BatchNorm2d(576, eps=1e-05, momentum=0.1, affine=True, track_running_stats=True)\n      (2): ReLU6(inplace=True)\n    )\n    (1): Conv2dNormActivation(\n      (0): Conv2d(576, 576, kernel_size=(3, 3), stride=(1, 1), padding=(1, 1), groups=576, bias=False)\n      (1): BatchNorm2d(576, eps=1e-05, momentum=0.1, affine=True, track_running_stats=True)\n      (2): ReLU6(inplace=True)\n    )\n    (2): Conv2d(576, 96, kernel_size=(1, 1), stride=(1, 1), bias=False)\n    (3): BatchNorm2d(96, eps=1e-05, momentum=0.1, affine=True, track_running_stats=True)\n  )\n)",
                    "features.12.conv": "Sequential(\n  (0): Conv2dNormActivation(\n    (0): Conv2d(96, 576, kernel_size=(1, 1), stride=(1, 1), bias=False)\n    (1): BatchNorm2d(576, eps=1e-05, momentum=0.1, affine=True, track_running_stats=True)\n    (2): ReLU6(inplace=True)\n  )\n  (1): Conv2dNormActivation(\n    (0): Conv2d(576, 576, kernel_size=(3, 3), stride=(1, 1), padding=(1, 1), groups=576, bias=False)\n    (1): BatchNorm2d(576, eps=1e-05, momentum=0.1, affine=True, track_running_stats=True)\n    (2): ReLU6(inplace=True)\n  )\n  (2): Conv2d(576, 96, kernel_size=(1, 1), stride=(1, 1), bias=False)\n  (3): BatchNorm2d(96, eps=1e-05, momentum=0.1, affine=True, track_running_stats=True)\n)",
                    "features.12.conv.0": "Conv2dNormActivation(\n  (0): Conv2d(96, 576, kernel_size=(1, 1), stride=(1, 1), bias=False)\n  (1): BatchNorm2d(576, eps=1e-05, momentum=0.1, affine=True, track_running_stats=True)\n  (2): ReLU6(inplace=True)\n)",
                    "features.12.conv.0.0": "Conv2d(96, 576, kernel_size=(1, 1), stride=(1, 1), bias=False)",
                    "features.12.conv.0.1": "BatchNorm2d(576, eps=1e-05, momentum=0.1, affine=True, track_running_stats=True)",
                    "features.12.conv.0.2": "ReLU6(inplace=True)",
                    "features.12.conv.1": "Conv2dNormActivation(\n  (0): Conv2d(576, 576, kernel_size=(3, 3), stride=(1, 1), padding=(1, 1), groups=576, bias=False)\n  (1): BatchNorm2d(576, eps=1e-05, momentum=0.1, affine=True, track_running_stats=True)\n  (2): ReLU6(inplace=True)\n)",
                    "features.12.conv.1.0": "Conv2d(576, 576, kernel_size=(3, 3), stride=(1, 1), padding=(1, 1), groups=576, bias=False)",
                    "features.12.conv.1.1": "BatchNorm2d(576, eps=1e-05, momentum=0.1, affine=True, track_running_stats=True)",
                    "features.12.conv.1.2": "ReLU6(inplace=True)",
                    "features.12.conv.2": "Conv2d(576, 96, kernel_size=(1, 1), stride=(1, 1), bias=False)",
                    "features.12.conv.3": "BatchNorm2d(96, eps=1e-05, momentum=0.1, affine=True, track_running_stats=True)",
                    "features.13": "InvertedResidual(\n  (conv): Sequential(\n    (0): Conv2dNormActivation(\n      (0): Conv2d(96, 576, kernel_size=(1, 1), stride=(1, 1), bias=False)\n      (1): BatchNorm2d(576, eps=1e-05, momentum=0.1, affine=True, track_running_stats=True)\n      (2): ReLU6(inplace=True)\n    )\n    (1): Conv2dNormActivation(\n      (0): Conv2d(576, 576, kernel_size=(3, 3), stride=(1, 1), padding=(1, 1), groups=576, bias=False)\n      (1): BatchNorm2d(576, eps=1e-05, momentum=0.1, affine=True, track_running_stats=True)\n      (2): ReLU6(inplace=True)\n    )\n    (2): Conv2d(576, 96, kernel_size=(1, 1), stride=(1, 1), bias=False)\n    (3): BatchNorm2d(96, eps=1e-05, momentum=0.1, affine=True, track_running_stats=True)\n  )\n)",
                    "features.13.conv": "Sequential(\n  (0): Conv2dNormActivation(\n    (0): Conv2d(96, 576, kernel_size=(1, 1), stride=(1, 1), bias=False)\n    (1): BatchNorm2d(576, eps=1e-05, momentum=0.1, affine=True, track_running_stats=True)\n    (2): ReLU6(inplace=True)\n  )\n  (1): Conv2dNormActivation(\n    (0): Conv2d(576, 576, kernel_size=(3, 3), stride=(1, 1), padding=(1, 1), groups=576, bias=False)\n    (1): BatchNorm2d(576, eps=1e-05, momentum=0.1, affine=True, track_running_stats=True)\n    (2): ReLU6(inplace=True)\n  )\n  (2): Conv2d(576, 96, kernel_size=(1, 1), stride=(1, 1), bias=False)\n  (3): BatchNorm2d(96, eps=1e-05, momentum=0.1, affine=True, track_running_stats=True)\n)",
                    "features.13.conv.0": "Conv2dNormActivation(\n  (0): Conv2d(96, 576, kernel_size=(1, 1), stride=(1, 1), bias=False)\n  (1): BatchNorm2d(576, eps=1e-05, momentum=0.1, affine=True, track_running_stats=True)\n  (2): ReLU6(inplace=True)\n)",
                    "features.13.conv.0.0": "Conv2d(96, 576, kernel_size=(1, 1), stride=(1, 1), bias=False)",
                    "features.13.conv.0.1": "BatchNorm2d(576, eps=1e-05, momentum=0.1, affine=True, track_running_stats=True)",
                    "features.13.conv.0.2": "ReLU6(inplace=True)",
                    "features.13.conv.1": "Conv2dNormActivation(\n  (0): Conv2d(576, 576, kernel_size=(3, 3), stride=(1, 1), padding=(1, 1), groups=576, bias=False)\n  (1): BatchNorm2d(576, eps=1e-05, momentum=0.1, affine=True, track_running_stats=True)\n  (2): ReLU6(inplace=True)\n)",
                    "features.13.conv.1.0": "Conv2d(576, 576, kernel_size=(3, 3), stride=(1, 1), padding=(1, 1), groups=576, bias=False)",
                    "features.13.conv.1.1": "BatchNorm2d(576, eps=1e-05, momentum=0.1, affine=True, track_running_stats=True)",
                    "features.13.conv.1.2": "ReLU6(inplace=True)",
                    "features.13.conv.2": "Conv2d(576, 96, kernel_size=(1, 1), stride=(1, 1), bias=False)",
                    "features.13.conv.3": "BatchNorm2d(96, eps=1e-05, momentum=0.1, affine=True, track_running_stats=True)",
                    "features.14": "InvertedResidual(\n  (conv): Sequential(\n    (0): Conv2dNormActivation(\n      (0): Conv2d(96, 576, kernel_size=(1, 1), stride=(1, 1), bias=False)\n      (1): BatchNorm2d(576, eps=1e-05, momentum=0.1, affine=True, track_running_stats=True)\n      (2): ReLU6(inplace=True)\n    )\n    (1): Conv2dNormActivation(\n      (0): Conv2d(576, 576, kernel_size=(3, 3), stride=(2, 2), padding=(1, 1), groups=576, bias=False)\n      (1): BatchNorm2d(576, eps=1e-05, momentum=0.1, affine=True, track_running_stats=True)\n      (2): ReLU6(inplace=True)\n    )\n    (2): Conv2d(576, 160, kernel_size=(1, 1), stride=(1, 1), bias=False)\n    (3): BatchNorm2d(160, eps=1e-05, momentum=0.1, affine=True, track_running_stats=True)\n  )\n)",
                    "features.14.conv": "Sequential(\n  (0): Conv2dNormActivation(\n    (0): Conv2d(96, 576, kernel_size=(1, 1), stride=(1, 1), bias=False)\n    (1): BatchNorm2d(576, eps=1e-05, momentum=0.1, affine=True, track_running_stats=True)\n    (2): ReLU6(inplace=True)\n  )\n  (1): Conv2dNormActivation(\n    (0): Conv2d(576, 576, kernel_size=(3, 3), stride=(2, 2), padding=(1, 1), groups=576, bias=False)\n    (1): BatchNorm2d(576, eps=1e-05, momentum=0.1, affine=True, track_running_stats=True)\n    (2): ReLU6(inplace=True)\n  )\n  (2): Conv2d(576, 160, kernel_size=(1, 1), stride=(1, 1), bias=False)\n  (3): BatchNorm2d(160, eps=1e-05, momentum=0.1, affine=True, track_running_stats=True)\n)",
                    "features.14.conv.0": "Conv2dNormActivation(\n  (0): Conv2d(96, 576, kernel_size=(1, 1), stride=(1, 1), bias=False)\n  (1): BatchNorm2d(576, eps=1e-05, momentum=0.1, affine=True, track_running_stats=True)\n  (2): ReLU6(inplace=True)\n)",
                    "features.14.conv.0.0": "Conv2d(96, 576, kernel_size=(1, 1), stride=(1, 1), bias=False)",
                    "features.14.conv.0.1": "BatchNorm2d(576, eps=1e-05, momentum=0.1, affine=True, track_running_stats=True)",
                    "features.14.conv.0.2": "ReLU6(inplace=True)",
                    "features.14.conv.1": "Conv2dNormActivation(\n  (0): Conv2d(576, 576, kernel_size=(3, 3), stride=(2, 2), padding=(1, 1), groups=576, bias=False)\n  (1): BatchNorm2d(576, eps=1e-05, momentum=0.1, affine=True, track_running_stats=True)\n  (2): ReLU6(inplace=True)\n)",
                    "features.14.conv.1.0": "Conv2d(576, 576, kernel_size=(3, 3), stride=(2, 2), padding=(1, 1), groups=576, bias=False)",
                    "features.14.conv.1.1": "BatchNorm2d(576, eps=1e-05, momentum=0.1, affine=True, track_running_stats=True)",
                    "features.14.conv.1.2": "ReLU6(inplace=True)",
                    "features.14.conv.2": "Conv2d(576, 160, kernel_size=(1, 1), stride=(1, 1), bias=False)",
                    "features.14.conv.3": "BatchNorm2d(160, eps=1e-05, momentum=0.1, affine=True, track_running_stats=True)",
                    "features.15": "InvertedResidual(\n  (conv): Sequential(\n    (0): Conv2dNormActivation(\n      (0): Conv2d(160, 960, kernel_size=(1, 1), stride=(1, 1), bias=False)\n      (1): BatchNorm2d(960, eps=1e-05, momentum=0.1, affine=True, track_running_stats=True)\n      (2): ReLU6(inplace=True)\n    )\n    (1): Conv2dNormActivation(\n      (0): Conv2d(960, 960, kernel_size=(3, 3), stride=(1, 1), padding=(1, 1), groups=960, bias=False)\n      (1): BatchNorm2d(960, eps=1e-05, momentum=0.1, affine=True, track_running_stats=True)\n      (2): ReLU6(inplace=True)\n    )\n    (2): Conv2d(960, 160, kernel_size=(1, 1), stride=(1, 1), bias=False)\n    (3): BatchNorm2d(160, eps=1e-05, momentum=0.1, affine=True, track_running_stats=True)\n  )\n)",
                    "features.15.conv": "Sequential(\n  (0): Conv2dNormActivation(\n    (0): Conv2d(160, 960, kernel_size=(1, 1), stride=(1, 1), bias=False)\n    (1): BatchNorm2d(960, eps=1e-05, momentum=0.1, affine=True, track_running_stats=True)\n    (2): ReLU6(inplace=True)\n  )\n  (1): Conv2dNormActivation(\n    (0): Conv2d(960, 960, kernel_size=(3, 3), stride=(1, 1), padding=(1, 1), groups=960, bias=False)\n    (1): BatchNorm2d(960, eps=1e-05, momentum=0.1, affine=True, track_running_stats=True)\n    (2): ReLU6(inplace=True)\n  )\n  (2): Conv2d(960, 160, kernel_size=(1, 1), stride=(1, 1), bias=False)\n  (3): BatchNorm2d(160, eps=1e-05, momentum=0.1, affine=True, track_running_stats=True)\n)",
                    "features.15.conv.0": "Conv2dNormActivation(\n  (0): Conv2d(160, 960, kernel_size=(1, 1), stride=(1, 1), bias=False)\n  (1): BatchNorm2d(960, eps=1e-05, momentum=0.1, affine=True, track_running_stats=True)\n  (2): ReLU6(inplace=True)\n)",
                    "features.15.conv.0.0": "Conv2d(160, 960, kernel_size=(1, 1), stride=(1, 1), bias=False)",
                    "features.15.conv.0.1": "BatchNorm2d(960, eps=1e-05, momentum=0.1, affine=True, track_running_stats=True)",
                    "features.15.conv.0.2": "ReLU6(inplace=True)",
                    "features.15.conv.1": "Conv2dNormActivation(\n  (0): Conv2d(960, 960, kernel_size=(3, 3), stride=(1, 1), padding=(1, 1), groups=960, bias=False)\n  (1): BatchNorm2d(960, eps=1e-05, momentum=0.1, affine=True, track_running_stats=True)\n  (2): ReLU6(inplace=True)\n)",
                    "features.15.conv.1.0": "Conv2d(960, 960, kernel_size=(3, 3), stride=(1, 1), padding=(1, 1), groups=960, bias=False)",
                    "features.15.conv.1.1": "BatchNorm2d(960, eps=1e-05, momentum=0.1, affine=True, track_running_stats=True)",
                    "features.15.conv.1.2": "ReLU6(inplace=True)",
                    "features.15.conv.2": "Conv2d(960, 160, kernel_size=(1, 1), stride=(1, 1), bias=False)",
                    "features.15.conv.3": "BatchNorm2d(160, eps=1e-05, momentum=0.1, affine=True, track_running_stats=True)",
                    "features.16": "InvertedResidual(\n  (conv): Sequential(\n    (0): Conv2dNormActivation(\n      (0): Conv2d(160, 960, kernel_size=(1, 1), stride=(1, 1), bias=False)\n      (1): BatchNorm2d(960, eps=1e-05, momentum=0.1, affine=True, track_running_stats=True)\n      (2): ReLU6(inplace=True)\n    )\n    (1): Conv2dNormActivation(\n      (0): Conv2d(960, 960, kernel_size=(3, 3), stride=(1, 1), padding=(1, 1), groups=960, bias=False)\n      (1): BatchNorm2d(960, eps=1e-05, momentum=0.1, affine=True, track_running_stats=True)\n      (2): ReLU6(inplace=True)\n    )\n    (2): Conv2d(960, 160, kernel_size=(1, 1), stride=(1, 1), bias=False)\n    (3): BatchNorm2d(160, eps=1e-05, momentum=0.1, affine=True, track_running_stats=True)\n  )\n)",
                    "features.16.conv": "Sequential(\n  (0): Conv2dNormActivation(\n    (0): Conv2d(160, 960, kernel_size=(1, 1), stride=(1, 1), bias=False)\n    (1): BatchNorm2d(960, eps=1e-05, momentum=0.1, affine=True, track_running_stats=True)\n    (2): ReLU6(inplace=True)\n  )\n  (1): Conv2dNormActivation(\n    (0): Conv2d(960, 960, kernel_size=(3, 3), stride=(1, 1), padding=(1, 1), groups=960, bias=False)\n    (1): BatchNorm2d(960, eps=1e-05, momentum=0.1, affine=True, track_running_stats=True)\n    (2): ReLU6(inplace=True)\n  )\n  (2): Conv2d(960, 160, kernel_size=(1, 1), stride=(1, 1), bias=False)\n  (3): BatchNorm2d(160, eps=1e-05, momentum=0.1, affine=True, track_running_stats=True)\n)",
                    "features.16.conv.0": "Conv2dNormActivation(\n  (0): Conv2d(160, 960, kernel_size=(1, 1), stride=(1, 1), bias=False)\n  (1): BatchNorm2d(960, eps=1e-05, momentum=0.1, affine=True, track_running_stats=True)\n  (2): ReLU6(inplace=True)\n)",
                    "features.16.conv.0.0": "Conv2d(160, 960, kernel_size=(1, 1), stride=(1, 1), bias=False)",
                    "features.16.conv.0.1": "BatchNorm2d(960, eps=1e-05, momentum=0.1, affine=True, track_running_stats=True)",
                    "features.16.conv.0.2": "ReLU6(inplace=True)",
                    "features.16.conv.1": "Conv2dNormActivation(\n  (0): Conv2d(960, 960, kernel_size=(3, 3), stride=(1, 1), padding=(1, 1), groups=960, bias=False)\n  (1): BatchNorm2d(960, eps=1e-05, momentum=0.1, affine=True, track_running_stats=True)\n  (2): ReLU6(inplace=True)\n)",
                    "features.16.conv.1.0": "Conv2d(960, 960, kernel_size=(3, 3), stride=(1, 1), padding=(1, 1), groups=960, bias=False)",
                    "features.16.conv.1.1": "BatchNorm2d(960, eps=1e-05, momentum=0.1, affine=True, track_running_stats=True)",
                    "features.16.conv.1.2": "ReLU6(inplace=True)",
                    "features.16.conv.2": "Conv2d(960, 160, kernel_size=(1, 1), stride=(1, 1), bias=False)",
                    "features.16.conv.3": "BatchNorm2d(160, eps=1e-05, momentum=0.1, affine=True, track_running_stats=True)",
                    "features.17": "InvertedResidual(\n  (conv): Sequential(\n    (0): Conv2dNormActivation(\n      (0): Conv2d(160, 960, kernel_size=(1, 1), stride=(1, 1), bias=False)\n      (1): BatchNorm2d(960, eps=1e-05, momentum=0.1, affine=True, track_running_stats=True)\n      (2): ReLU6(inplace=True)\n    )\n    (1): Conv2dNormActivation(\n      (0): Conv2d(960, 960, kernel_size=(3, 3), stride=(1, 1), padding=(1, 1), groups=960, bias=False)\n      (1): BatchNorm2d(960, eps=1e-05, momentum=0.1, affine=True, track_running_stats=True)\n      (2): ReLU6(inplace=True)\n    )\n    (2): Conv2d(960, 320, kernel_size=(1, 1), stride=(1, 1), bias=False)\n    (3): BatchNorm2d(320, eps=1e-05, momentum=0.1, affine=True, track_running_stats=True)\n  )\n)",
                    "features.17.conv": "Sequential(\n  (0): Conv2dNormActivation(\n    (0): Conv2d(160, 960, kernel_size=(1, 1), stride=(1, 1), bias=False)\n    (1): BatchNorm2d(960, eps=1e-05, momentum=0.1, affine=True, track_running_stats=True)\n    (2): ReLU6(inplace=True)\n  )\n  (1): Conv2dNormActivation(\n    (0): Conv2d(960, 960, kernel_size=(3, 3), stride=(1, 1), padding=(1, 1), groups=960, bias=False)\n    (1): BatchNorm2d(960, eps=1e-05, momentum=0.1, affine=True, track_running_stats=True)\n    (2): ReLU6(inplace=True)\n  )\n  (2): Conv2d(960, 320, kernel_size=(1, 1), stride=(1, 1), bias=False)\n  (3): BatchNorm2d(320, eps=1e-05, momentum=0.1, affine=True, track_running_stats=True)\n)",
                    "features.17.conv.0": "Conv2dNormActivation(\n  (0): Conv2d(160, 960, kernel_size=(1, 1), stride=(1, 1), bias=False)\n  (1): BatchNorm2d(960, eps=1e-05, momentum=0.1, affine=True, track_running_stats=True)\n  (2): ReLU6(inplace=True)\n)",
                    "features.17.conv.0.0": "Conv2d(160, 960, kernel_size=(1, 1), stride=(1, 1), bias=False)",
                    "features.17.conv.0.1": "BatchNorm2d(960, eps=1e-05, momentum=0.1, affine=True, track_running_stats=True)",
                    "features.17.conv.0.2": "ReLU6(inplace=True)",
                    "features.17.conv.1": "Conv2dNormActivation(\n  (0): Conv2d(960, 960, kernel_size=(3, 3), stride=(1, 1), padding=(1, 1), groups=960, bias=False)\n  (1): BatchNorm2d(960, eps=1e-05, momentum=0.1, affine=True, track_running_stats=True)\n  (2): ReLU6(inplace=True)\n)",
                    "features.17.conv.1.0": "Conv2d(960, 960, kernel_size=(3, 3), stride=(1, 1), padding=(1, 1), groups=960, bias=False)",
                    "features.17.conv.1.1": "BatchNorm2d(960, eps=1e-05, momentum=0.1, affine=True, track_running_stats=True)",
                    "features.17.conv.1.2": "ReLU6(inplace=True)",
                    "features.17.conv.2": "Conv2d(960, 320, kernel_size=(1, 1), stride=(1, 1), bias=False)",
                    "features.17.conv.3": "BatchNorm2d(320, eps=1e-05, momentum=0.1, affine=True, track_running_stats=True)",
                    "features.18": "Conv2dNormActivation(\n  (0): Conv2d(320, 1280, kernel_size=(1, 1), stride=(1, 1), bias=False)\n  (1): BatchNorm2d(1280, eps=1e-05, momentum=0.1, affine=True, track_running_stats=True)\n  (2): ReLU6(inplace=True)\n)",
                    "features.18.0": "Conv2d(320, 1280, kernel_size=(1, 1), stride=(1, 1), bias=False)",
                    "features.18.1": "BatchNorm2d(1280, eps=1e-05, momentum=0.1, affine=True, track_running_stats=True)",
                    "features.18.2": "ReLU6(inplace=True)",
                    "classifier": "Sequential(\n  (0): Dropout(p=0.2, inplace=False)\n  (1): Linear(in_features=1280, out_features=2, bias=True)\n)",
                    "classifier.0": "Dropout(p=0.2, inplace=False)",
                    "classifier.1": "Linear(in_features=1280, out_features=2, bias=True)"
                }
            }
        },
        "k_folds": null,
        "hyperparameter_search": null
    },
    {
        "metrics": {
            "model_name": "MobileNetV2",
…
